Running on cpu
Training Dataste ... 
Number of samples : 180030
Development Dataste ... 
Number of samples : 30000


model parameters ... 
CNN6(
  (conv_layer1): Conv2d(1, 64, kernel_size=(2, 2), stride=(1, 1))
  (conv_layer2): Conv2d(64, 64, kernel_size=(2, 2), stride=(1, 1))
  (conv_layer3): Conv2d(64, 64, kernel_size=(2, 2), stride=(1, 1))
  (conv_layer4): Conv2d(64, 128, kernel_size=(2, 2), stride=(1, 1))
  (conv_layer5): Conv2d(128, 128, kernel_size=(2, 2), stride=(1, 1))
  (conv_layer6): Conv2d(128, 128, kernel_size=(2, 2), stride=(1, 1))
  (conv_layer7): Conv2d(128, 128, kernel_size=(2, 2), stride=(1, 1))
  (conv_layer8): Conv2d(128, 128, kernel_size=(1, 1), stride=(1, 1))
  (conv_layer9): Conv2d(128, 128, kernel_size=(1, 1), stride=(1, 1))
  (max_pool): MaxPool2d(kernel_size=(2, 2), stride=2, padding=0, dilation=1, ceil_mode=False)
  (relu): ReLU()
  (fc1): Linear(in_features=128, out_features=64, bias=True)
)


model configuration ... 
{'board_size': 8, 'path_save': 'save_models', 'epoch': 20, 'earlyStopping': 20, 'len_inpout_seq': 1, 'LSTM_conf': {'hidden_dim': 128}}


model optimizer ... 
Adam (
Parameter Group 0
    amsgrad: False
    betas: (0.9, 0.999)
    capturable: False
    differentiable: False
    eps: 1e-08
    foreach: None
    fused: False
    lr: 0.001
…
